scheems.tflite (tflite, 206976 bytes, 9 tensors)

arith.constant f4 [1, 32]
-0.056901168 0.06824705 -0.08252843 0.20682275 0.1712655 -0.34047043 0.1283997 -0.3397343
-0.05642669 -0.09121158 -0.040570524 -0.32955667 -0.33177996 -0.3532853 -0.3555214 -0.3423608
0.14832619 -0.009553387 0.03410872 -0.34002435 -0.3304783 0.12329227 0.069837615 0.14404261
-0.31259054 0.15237273 0.25415656 0.057534464 0.10879025 -0.026484445 -0.34911272 0.02932769
00000000: 3311 69bd 1cc5 8b3d aa04 a9bd 58c9 533e
00000010: 3960 2f3e 2452 aebe 367b 033e a7f1 adbe
00000020: ac1f 67bd 23cd babd 472d 26bd a7bb a8be
00000030: 10df a9be d0e1 b4be e706 b6be ea49 afbe
00000040: d2e2 173e cf85 1cbc 96b5 0b3d ac17 aebe
00000050: 7434 a9be a880 fc3d 0607 8f3d e87f 133e
00000060: de0b a0be 9907 1c3e cf20 823e 42a9 6b3d
00000070: 6ccd de3d e8f5 d8bc e7be b2be a040 f03c

arith.constant1 f4 [32, 32]
-0.0166936 0.1452946 -0.20662332 0.07357216 -0.05291772 -0.17866705 0.08259398 -0.05986823
0.037875876 0.0017359586 -0.08600949 -0.10924504 0.087639734 -0.17751163 0.025828855 0.042055015
-0.06345719 0.08637893 0.007351895 0.07827724 -0.024616893 -0.04286548 -0.0143099185 -0.02000224
-0.16051233 0.11022127 -0.0227755 0.107989974 0.092913695 -0.12785529 0.0010402311 0.07630978
0.014767689 -0.18276468 0.20040795 -0.1295419 -0.08925705 -0.03672244 -0.16065808 0.13509284
0.13418984 0.09094247 0.10418559 0.02901962 -0.04166683 -0.05166925 -0.123107634 0.13169953
0.02669053 0.12745814 -0.019868055 0.06303914 0.12603533 -0.15923627 -0.016545275 0.14073958
0.1280337 -0.12029715 -0.024638347 -0.13402607 -0.094440386 0.06749085 -0.09498337 -0.09363133
0.02613917 0.1433514 -0.015824454 -0.030169016 -0.024437156 0.04183016 0.101919904 -0.04738185
0.11988176 0.02156539 0.061925296 -0.14466476 0.06329919 0.046181154 -0.08875643 -0.087626755
0.13840525 0.06538571 -0.10450375 -0.013050853 0.06593727 -0.07655396 0.14545542 -0.12803823
-0.03952947 -0.12546182 -0.08790937 0.023800012 -0.12590341 -0.08283836 0.043501347 -0.14368305
0.068193786 -0.16304582 -0.06966828 0.011214449 -0.13565661 -0.10446916 0.04991143 -0.038233906
-0.02682736 -0.13993561 -0.12491571 -0.0828278 -0.08350555 0.15534852 0.12390894 0.054372028
0.13724305 -0.002706784 -0.05419958 0.08881543 -0.096025065 -0.010093376 -0.06710119 0.06360822
0.1585692 0.010080604 0.1488435 0.011101182 0.16954425 -0.101580486 0.15433235 0.15922184
0.11694126 -0.093620904 -0.09913673 -0.012147009 -0.03850553 -0.06937306 -0.05327675 -0.09110155
0.108914435 0.0854541 -0.13414544 -0.069733836 -0.10187855 -0.07857547 -0.019362867 -0.049060844
-0.12333767 0.14555128 0.051457405 0.00653606 -0.07215061 -0.03462673 -0.05968919 0.10588953
0.1428831 0.028021578 0.13264586 -0.111440234 0.09942532 -0.021506077 0.055649754 -0.029762298
-0.06349625 0.022092614 -0.015634535 -0.11950358 0.17513274 0.09942285 -0.013990876 0.04603837
0.053301375 0.12266485 0.09457438 0.060147215 0.043759536 0.11206757 -0.09676055 -0.09403394
-0.0024996337 -0.10781666 -0.13379161 -0.08811808 -0.037191905 0.10101365 -0.1380915 0.0019371797
-0.16648096 -0.0851171 -0.04868331 -0.0339117 -0.06906705 0.10123303 0.112685435 0.08530311
0.16954882 -0.2025715 -0.037122898 0.08038714 0.059458323 -0.0070825717 -0.1370015 0.12959096
-0.13260514 -0.0119642615 -0.10751215 -0.02658139 -0.1391764 0.15155873 0.13404927 -0.15064669
0.16902857 0.14922619 0.012670114 -0.004417011 0.008688371 0.12620427 0.1549481 -0.059950702
-0.112923175 -0.056465574 0.12788975 -0.0027873735 -0.0792803 0.03644926 -0.005764189 -0.026088992
-0.040267304 0.1689827 0.009782365 -0.026088515 0.06666866 0.1415659 0.031794947 -0.14406683
-0.059644707 -0.10672045 -0.1010995 0.077258185 0.13727377 0.1553741 0.0029719116 -0.016796114
-0.06821367 0.10233768 0.0035650318 0.072973415 -0.07624279 0.12063818 0.05620959 -0.11177757
-0.04569664 -0.090689644 0.0042999513 -0.105506994 -0.036469657 -0.037706178 0.0614556 -0.118095376
00000000: 04c1 88bc 1cc8 143e 1095 53be 00ad 963d
00000010: 40c0 58bd 7ff4 36be 0827 a93d 6438 75bd
00000020: bc23 1b3d 1b89 e33a be25 b0bd ddbb dfbd
00000030: 767c b33d 9cc5 35be 0997 d33c e141 2c3d
00000040: d8f5 81bd 70e7 b03d 2ae8 f03b d14f a03d
00000050: 5ea9 c9bc b793 2fbd 2674 6abc bddb a3bc
00000060: 585d 24be b0bb e13d af93 babc d929 dd3d
00000070: 8949 be3d 7fec 02be 5d58 883a 4d48 9c3d
00000080: 2df4 713c aa26 3bbe be37 4d3e a2a6 04be
00000090: 66cc b6bd 456a 16bd 8d83 24be c755 0a3e
000000a0: 1069 093e 0c40 ba3d 415f d53d 8eba ed3c
000000b0: d7aa 2abd 23a3 53bd db1f fcbd 3edc 063e
000000c0: 19a6 da3c 6384 023e 55c2 a2bc aa1a 813d
000000d0: 680f 013e d50e 23be f589 87bc 091e 103e
000000e0: 441b 033e 5a5e f6bd 5cd6 c9bc 213e 09be
000000f0: f669 c1bd a538 8a3d a486 c2bd c8c1 bfbd
00000100: d021 d63c b6ca 123e 49a2 81bc 0325 f7bc
00000110: 6e30 c8bc 1a56 2b3d 62bb d03d 7913 42bd
00000120: 9184 f53d e7a9 b03c 61a5 7d3d 0023 14be
00000130: 01a3 813d 7328 3d3d eec5 b5bd a875 b3bd
00000140: 1bba 0d3e f1e8 853d 1006 d6bd 3fd3 55bc
00000150: 1f0a 873d 53c8 9cbd 44f2 143e 741c 03be
00000160: a7e9 21bd 1079 00be d409 b4bd 3ef8 c23c
00000170: d3ec 00be 28a7 a9bd 782e 323d a621 13be
00000180: 2fa9 8b3d 7cf5 26be 3eae 8ebd cfbc 373c
00000190: 91e9 0abe edf3 d5bd ed6f 4c3d 289b 1cbd
000001a0: 0dc5 dbbc 484b 0fbe cfd3 ffbd 9fa1 a9bd
000001b0: f504 abbd af13 1f3e f8c3 fd3d 34b5 5e3d
000001c0: 7189 0c3e 4d64 31bb 6100 5ebd dde4 b53d
000001d0: caa8 c4bd b05e 25bc 596c 89bd 0745 823d
000001e0: f75f 223e 1e29 253c 6e6a 183e bbe1 353c
000001f0: 029d 2d3e 6e09 d0bd 4d09 1e3e 0d0b 233e
00000200: e67e ef3d 51bc bfbd 3308 cbbd 4004 47bc
00000210: fab7 1dbd 7613 8ebd b938 5abd 7393 babd
00000220: 880e df3d 8f02 af3d 6c5d 09be 9dd0 8ebd
00000230: b4a5 d0bd 2dec a0bd e09e 9ebc 06f4 48bd
00000240: 7698 fcbd 650b 153e 00c5 523d 722c d63b
00000250: b3c3 93bd c2d4 0dbd a77c 74bd 9cdc d83d
00000260: f34f 123e 828d e53c 51d4 073e c73a e4bd
00000270: 819f cb3d 832d b0bc fff0 633d 10d0 f3bc
00000280: 520a 82bd 92fb b43c ff13 80bc 4bbe f4bd
00000290: ff55 333e 359e cb3d fd39 65bc bb92 3c3d
000002a0: 8b52 5a3d b537 fb3d 36b0 c13d ed5c 763d
000002b0: 333d 333d af83 e53d 652a c6bd de94 c0bd
000002c0: e5d0 23bb fbce dcbd ab00 09be 4077 b4bd
000002d0: 8a56 18bd 3fe0 ce3d dc67 0dbe f7e8 fd3a
000002e0: fc79 2abe e051 aebd 2768 47bd ffe6 0abd
000002f0: 0773 8dbd 4353 cf3d 9fc7 e63d 66b3 ae3d
00000300: 359e 2d3e e76e 4fbe 2e0e 18bd 03a2 a43d
00000310: 928a 733d eb14 e8bb 1f4a 0cbe 7eb3 043e
00000320: a4c9 07be c005 44bc 552f dcbd 37c1 d9bc
00000330: 4284 0ebe 3632 1b3e 3644 093e 2043 1abe
00000340: d315 2d3e c0ce 183e 4f96 4f3c 93bc 90bb
00000350: ab59 0e3c b13b 013e b7aa 1e3e de8e 75bd
00000360: 4444 e7bd 7248 67bd 88f5 023e 5eac 36bb
00000370: b65d a2bd d24b 153d 86e1 bcbb 95b8 d5bc
00000380: 54ef 24bd cd09 2d3e 3646 203c 95b7 d5bc
00000390: 9489 883d a7f6 103e 6b3b 023d 4186 13be
000003a0: 024e 74bd 4090 dabd 410d cfbd 8a39 9e3d
000003b0: 7f91 0c3e 631a 1f3e 67c4 423b 0198 89bc
000003c0: 9cb3 8bbd 6b96 d13d 4fa3 693b 1673 953d
000003d0: 2e25 9cbd 2611 f73d 073c 663d a3eb e4bd
000003e0: 662c 3bbd 7ebb b9bd 9be6 8c3b 0d14 d8bd
000003f0: 3561 15bd cb71 1abd deb8 7b3d fddb f1bd

arith.constant2 f4 [32, 1536]
0.0012505713 -0.0048622023 -0.024678146 -0.018249227 0.026916781 0.0005673641 0.008782765 0.024803508
-0.030624328 -0.011830632 -0.020603891 0.010497704 0.014266652 0.0056619616 -0.025164247 -0.02956599
0.002119623 -0.014095575 0.0010071032 0.020895611 0.0006602779 0.01558635 0.024827905 0.005409523
0.013282841 0.027377032 0.022704849 -0.015269378 -0.004744186 -0.030569166 0.020029591 0.009173565
0.0055759456 0.026854683 -0.030115949 -0.011535395 -0.018237894 -0.006310832 0.011747131 -0.023567965
-0.009217267 -0.0258746 0.0052313777 -0.0071871164 -0.013806032 0.00526091 -0.01800353 -0.0090262
-0.02450304 0.0033048715 0.00789864 -0.0031114246 0.01528305 0.030441387 0.013137376 -0.007404678
0.03358742 -0.001206334 -0.0016250447 -0.02787282 -0.000790983 -0.022849131 -0.009348095 -0.02485657
-0.008560168 -0.020093864 0.01622042 0.0058998754 -0.013740714 -0.019580139 -0.029782586 -0.022630837
0.012961059 -0.0077738096 0.01613369 0.025077697 -0.0076780287 0.006539734 0.0083101615 -0.00011038335
-0.004843416 -0.0073358715 -0.011028655 0.0038957992 0.0114494655 -0.0175898 -0.01000603 -0.011034005
-0.013154074 -0.021821063 0.0013891463 -0.004762223 0.0033882544 0.014587114 0.015661275 0.0027083168
-0.011718299 -0.006188008 -0.02191665 -0.034647413 0.010794861 0.0072433716 -0.029507346 -0.012195202
-0.020748915 -0.0015129203 -0.018830609 0.0052999845 0.0074995076 -0.009771169 0.025846282 0.007157485
-0.030524626 -0.005405451 0.0175872 0.004168062 -0.032147598 0.022780858 -0.01740426 -0.008044649
0.020715984 0.010416224 0.0040027727 0.010351587 -0.008923441 0.0025554316 0.024252268 -0.02332856
-0.0208582 -0.023082875 -0.006855041 0.0013848417 -0.020873373 -0.024421679 0.004837284 -0.019119171
-0.0171479 -0.017679585 0.017150637 0.002363031 -0.020245297 -0.016375856 0.009270403 0.004646681
0.021197677 0.021165876 -0.01143743 -0.0051344656 -0.013724788 0.0018026435 -0.0070224334 0.0054079965
0.023641855 0.015595517 -0.011590923 -0.010723368 -0.019066716 0.0054086745 0.026199376 0.0022873785
0.015550279 -0.02027028 0.028930375 0.021997722 -0.0066363644 -0.010271772 -0.0037447526 0.014015628
0.024660774 0.013734894 -0.007706287 0.008813761 0.009043994 -0.009877417 0.009418621 -0.017431308
-0.02216977 0.020729942 -0.004267916 0.011050729 0.025337635 0.0105965035 0.020494204 0.018090084
-0.008733832 0.019979214 0.0027230717 0.0043323482 0.016166497 -0.0010923238 0.018704347 0.0024227202
0.0061156284 -0.00028610547 -0.0005505354 -0.021242213 0.003942353 0.017316256 -0.013807069 0.0022467156
-0.03537839 0.014706732 -0.024698477 0.006751024 0.013215131 0.016254866 0.0037277215 -0.028012475
0.0004288614 -0.028702207 -0.007249416 -0.0018183888 0.014300608 0.0075197676 -0.009084281 -0.024707394
0.022582652 0.0015867769 -0.0040667052 -0.00047322697 0.005173327 -0.014596022 -0.00026614065 -0.025837533
0.0046498794 0.0130956685 -0.014083974 0.016434403 0.0118733635 0.01812715 0.016219148 0.014862314
0.0066600256 0.024395606 0.008894549 -0.022935916 -0.0031516324 -0.015995255 -0.006163768 -0.030373085
-0.012297457 0.007892067 0.0017415918 -0.014090762 -0.010236204 0.0063601076 0.010876363 0.02539344
-0.01996646 0.012911679 0.008408047 0.012192062 -0.011158329 0.017936094 -0.0023536892 -0.020950392
00000000: 36ea a33a 1c53 9fbb d329 cabc 677f 95bc
00000010: 9580 dc3c 29bb 143a 96e5 0f3c ba30 cb3c
00000020: dfdf fabc 44d5 41bc 7ec9 a8bc 90fe 2b3c
00000030: adbe 693c fa87 b93b 4025 cebc 6034 f2bc
00000040: 5fe9 0a3b 20f1 66bc c700 843a 462d ab3c
00000050: 8016 2d3a e45d 7f3c e463 cb3c 5e42 b13b
00000060: 46a0 593c cc45 e03c 85ff b93c 6a2c 7abc
00000070: 1e75 9bbb 306c fabc 1915 a43c b84c 163c
00000080: 6cb6 b63b 5afe db3c b9b5 f6bc f4fe 3cbc
00000090: a367 95bc 19cb cebb 0a77 403c 9b11 c1bc
000000a0: 0504 17bc f8f6 d3bc fa6b ab3b e781 ebbb
000000b0: b232 62bc b663 ac3b 247c 93bc a0e2 13bc
000000c0: 99ba c8bc 8b96 583b 4c69 013c 0be9 4bbb
000000d0: c265 7a3c 3760 f93c 263e 573c f1a2 f2bb
000000e0: f692 093d da1d 9eba 74ff d4ba 8a55 e4bc
000000f0: f859 4fba 1a2e bbbc c128 19bc 01a0 cbbc
00000100: f23f 0cbc e39b a4bc b0e0 843c be53 c13b
00000110: bb20 61bc 8766 a0bc 9cfa f3bc 4e64 b9bc
00000120: 9f5a 543c 71bb febb cd2a 843c be6f cd3c
00000130: f997 fbbb 444b d63b 5827 083c 9c7d e7b8
00000140: 85b5 9ebb c061 f0bb 88b1 34bc aa50 7f3b
00000150: 8a96 3b3c 7c18 90bc 55f0 23bc f9c7 34bc
00000160: 2f84 57bc 16c2 b2bc 0414 b63a 6c0c 9cbb
00000170: 7a0d 5e3b cafe 6e3c 134c 803c 047e 313b
00000180: 1cfe 3fbc c6c4 cabb 8c8a b3bc 72ea 0dbd
00000190: eedc 303c ce59 ed3b 64b9 f1bc 62ce 47bc
000001a0: a1f9 a9bc 2e4d c6ba a642 9abc 7eab ad3b
000001b0: 6ebe f53b 4117 20bc 95bb d33c 5689 ea3b
000001c0: c80e fabc 3620 b1bb 0813 903c 3d94 883b
000001d0: 33ad 03bd ec9e ba3c 6193 8ebc b4cd 03bc
000001e0: 91b4 a93c cfa8 2a3c b129 833b b499 293c
000001f0: a033 12bc 0779 273b b1ac c63c 891b bfbc
00000200: d1de aabc 4c18 bdbc 40a0 e0bb 9483 b53a
00000210: a3fe aabc f90f c8bc 1482 9e3b cf9f 9cbc
00000220: c179 8cbc c7d4 90bc 7e7f 8c3c 15dd 1a3b
00000230: 77d9 a5bc a926 86bc e3e2 173c 2f43 983b
00000240: c0a6 ad3c 0f64 ad3c 0f64 3bbc 053f a8bb
00000250: efdd 60bc ae46 ec3a 711c e6bb 9035 b13b
00000260: 90ac c13c 5784 7f3c dbe7 3dbc 11b1 2fbc
00000270: cd31 9cbc 403b b13b 13a0 d63c d8e7 153b
00000280: 99c6 7e3c dc0d a6bc 65ff ec3c 9134 b43c
00000290: dc75 d9bb ef4a 28bc 866a 75bb cea1 653c
000002a0: 6405 ca3c 5208 613c 0585 fcbb 9867 103c
000002b0: 432d 143c e4d4 21bc 8f50 1a3c 1acc 8ebc
000002c0: 619d b5bc d7d1 a93c e0d9 8bbb 1e0e 353c
000002d0: df90 cf3c f59c 2d3c 76e3 a73c a831 943c
000002e0: 5918 0fbc 73ab a33c 9075 323b 5ff6 8d3b
000002f0: 9a6f 843c 4e2c 8fba dc39 993c 80c6 1e3b
00000300: 9c65 c83b 6d00 96b9 ce51 10ba 2604 aebc
00000310: db2e 813b d2da 8d3c 0b37 62bc a23d 133b
00000320: eee8 10bd 81f4 703c 7654 cabc b237 dd3b
00000330: 4784 583c ed28 853c ca4c 743b 6b7a e5bc
00000340: ced8 e039 e420 ebbc 828c edbb 0157 eeba
00000350: 194d 6a3c 6268 f63b 3cd6 14bc 2967 cabc
00000360: 41ff b83c 66fb cf3a ff41 85bb 731b f8b9
00000370: 0385 a93b 2724 6fbc cb88 8bb9 3ca9 d3bc
00000380: 045e 983b 378f 563c 78c0 66bc 71a1 863c
00000390: 7f88 423c 647f 943c 05de 843c 1081 733c
000003a0: 583c da3b 4bd9 c73c 71ba 113c 1ae4 bbbc
000003b0: 9e8b 4ebb 7b08 83bc 6ff9 c9bb fad0 f8bc
000003c0: 467b 49bc ba4d 013c 2046 e43a f0dc 66bc
000003d0: c0b5 27bc 7368 d03b c632 323c e705 d03c
000003e0: b490 a3bc 828b 533c e8c1 093c 37c1 473c
000003f0: 6dd1 36bc b7ee 923c 5a40 1abb 28a0 abbc

model_8/tf.__operators__.add/AddV2/y f4 [32]
0.012302988 0.009572514 -0.0052692224 0.015700806 0.017648635 0.010634115 -0.021579815 -0.023512341
-0.014517038 -0.012164392 0.0027241479 -0.008678543 0.0016836745 0.014597947 0.01630453 -0.012783501
0.0044226306 -0.018170884 -0.019672878 0.0025471689 0.005490865 0.005739228 -0.018091092 -0.014475141
-0.0018713346 -0.020247398 0.006913463 -0.0074592596 0.012835194 0.010308773 0.01763224 -0.02296338
00000000: 7992 493c 09d6 1c3c 71a9 acbb fa9e 803c
00000010: df93 903c b63a 2e3c 27c8 b0bc f49c c0bc
00000020: dfd8 6dbc 284d 47bc 9e87 323b 7330 0ebc
00000030: beae dc3a 3a2c 6f3c 1491 853c e471 51bc
00000040: b7eb 903b 1bdb 94bc 0429 a1bc 67ee 263b
00000050: b7ec b33b 2210 bc3b c533 94bc 2429 6dbc
00000060: 9247 f5ba dfdd a5bc 558a e23b ce6c f4bb
00000070: b54a 523c 21e6 283c 7d71 903c b31d bcbc

model_8/tf.__operators__.add_1/AddV2/y f4 [32]
0.0276204 0.045743264 0.057891466 -0.1167796 -0.014129095 0.023751473 0.05579407 0.13232042
0.14239298 -0.049480174 0.08115054 -0.18195969 -0.12666129 0.06252449 -0.15437028 0.14690486
-0.098891586 -0.04500738 -0.13964255 -0.031070981 -0.14369093 0.0406457 -0.09276712 0.1293431
0.1107371 -0.009019375 0.08064641 -0.15160492 0.093706936 0.10532897 -0.12611187 0.14627525
00000000: 2d44 e23c 4a5d 3b3d 9a1f 6d3d 252a efbd
00000010: b87d 67bc 7392 c23c 5388 643d 017f 073e
00000020: 77cf 113e b9ab 4abd 4132 a63d a453 3abe
00000030: 7fb3 01be d70c 803d 3e13 1ebe 3a6e 163e
00000040: ac87 cabd a959 38bd 75fe 0ebe 9288 febc
00000050: b723 13be 1b7c 263d b0fc bdbd 8572 043e
00000060: 22ca e23d 00c6 13bc f229 a53d 523e 1bbe
00000070: 6ce9 bf3d b7b6 d73d 7823 01be 2ec9 153e

model_8/tf.math.add_2/Add/y f4 [1, 32]
-0.010267971 0.012064388 -0.041616898 0.016751237 0.010363754 0.0032514816 -0.014120249 -0.015301144
0.0016235276 0.009270157 0.0075763203 -0.008629096 9.877626e-05 0.00020952799 -0.0020800072 -0.01234844
-0.022836281 0.007716557 -0.009447713 0.013752897 -0.0067495857 -0.02378236 -0.008380014 0.033013795
-0.0019720227 -0.0102203265 -0.009967687 0.002966711 0.013750853 0.016620899 0.017572358 -0.011932286
00000000: fe3a 28bc b6a9 453c 7b76 2abd e439 893c
00000010: bccc 293c cf16 553b 9e58 67bc a6b1 7abc
00000020: 8ccc d43a dbe1 173c c842 f83b 0d61 0dbc
00000030: 1a26 cf38 beb4 5b39 bb50 08bb 1c51 4abc
00000040: 2713 bbbc 2cdb fc3b 95ca 1abc d553 613c
00000050: a12b ddbb 39d3 c2bc 544c 09bc 7939 073d
00000060: 0d3d 01bb 2873 27bc 824f 23bc 276d 423b
00000070: 424b 613c 8d28 883c e8f3 8f3c a37f 43bc

model_8/tf.math.add_5/Add/y f4 [1, 32]
-0.040112615 0.03608449 0.024451274 0.040398914 0.09687829 0.2624421 0.014006375 0.21162915
0.0009065812 -0.048495006 -0.006553649 0.21879445 0.22385986 0.21211135 0.22149064 0.21999161
-0.014642956 -0.058005568 -0.0032545226 0.24899837 0.22785133 0.008264248 0.06311893 0.023293335
0.24036816 0.021319462 0.03366842 0.027224863 0.077391334 -0.012170159 0.21219464 0.006322308
00000000: 204d 24bd 55cd 133d 0a4e c83c 5579 253d
00000010: 2068 c63d d05e 863e ff7a 653c 50b5 583e
00000020: a2a7 6d3a b3a2 46bd febf d6bb a70b 603e
00000030: 853b 653e b833 593e 71ce 623e 7b45 613e
00000040: 02e9 6fbc 3f97 6dbd d449 55bb 6ef9 7e3e
00000050: dc51 693e c566 073c 7f44 813d aad1 be3c
00000060: 1223 763e 27a6 ae3c e6e7 093d ad06 df3c
00000070: 597f 9e3d 5965 47bc 8d49 593e 5d2b cf3b

model_8/tf.math.multiply_10/Mul/y f4 [1, 32]
0.9980489 1.0310516 0.9630171 1.0144426 1.0245205 1.0075347 0.9946954 0.98987126
1.0011487 0.9866023 1.0015289 0.98229617 0.98645586 0.9919919 0.99386823 0.9971954
0.9882645 1.0128226 0.98485833 1.010229 0.9869985 0.9890647 0.9886414 1.0231409
0.9957996 0.9976568 0.9975936 0.9926534 0.9700474 1.0379982 1.0088003 0.98853976
00000000: 2280 7f3f 80f9 833f 4a88 763f 41d9 813f
00000010: 7d23 833f e6f6 803f 5ca4 7e3f 3468 7d3f
00000020: a425 803f f891 7c3f 1932 803f c377 7b3f
00000030: 5f88 7c3f 2ef3 7d3f 266e 7e3f 3348 7f3f
00000040: e7fe 7c3f 2ca4 813f ad1f 7c3f 2f4f 813f
00000050: efab 7c3f 5833 7d3f 9a17 7d3f 48f6 823f
00000060: b9ec 7e3f 7066 7f3f 4b62 7f3f 891e 7e3f
00000070: 0755 783f 20dd 843f 5e20 813f f110 7d3f

model_8/tf.math.multiply_22/Mul/y f4 [1, 32]
0.95958024 1.0696074 1.0160929 1.068909 1.1317959 1.3354931 1.0144454 1.1903293
1.0003908 0.962785 0.9918662 1.2194123 1.2319051 1.2080369 1.2124183 1.2258732
0.99610156 0.9460493 1.0014719 1.3031102 1.2403556 1.0037001 1.043176 1.0451092
1.2723113 1.0318136 1.0842801 1.0605164 1.0690758 0.9934867 1.2017605 1.0131009
00000000: 0da7 753f e5e8 883f 550f 823f 03d2 883f
00000010: b0de 903f 70f1 aa3f 59d9 813f b65c 983f
00000020: ce0c 803f 1479 763f f1ea 7d3f b415 9c3f
00000030: 11af 9d3f f4a0 9a3f 8630 9b3f 6ae9 9c3f
00000040: 8300 7f3f 4930 723f 3b30 803f 51cc a63f
00000050: f9c3 9e3f 3f79 803f cb86 853f 23c6 853f
00000060: 19db a23f 7812 843f b1c9 8a3f 00bf 873f
00000070: 7ad7 883f 2555 7e3f 4ad3 993f 4aad 813f
